Resource/Models/mediapipe/language_detector.tflite (tflite, 315294 bytes, 14 tensors)

pod/head_0_ngram_1/kmeans_compression/b_matrix f4 [256, 4]
0.77372056 -0.77144134 0.058919664 -0.25851932 -0.89277434 0.2781491 0.36877677 -0.2669474
0.925243 0.9139249 -0.64687586 -2.675374 0.28048456 -0.16519544 0.68252707 -0.021085706
0.7549859 -1.7497847 0.7022884 -1.469254 -0.75937015 0.46519932 1.159833 -0.042404365
-0.7307453 -0.82523054 -0.8386684 1.0478895 0.27476937 -0.018658463 -0.28539306 0.14590757
-0.10173194 0.34177497 0.07629516 0.22880276 0.9799886 1.7259446 -0.52576107 -0.27649105
-0.8815036 -0.1089855 -0.3922594 0.70435894 0.29023317 0.4143144 -0.3656753 -0.25749192
-0.45432165 -0.12385596 -0.18938899 -1.3854005 -0.56625926 -0.665978 -0.120748244 0.4877521
-0.24033917 -0.66586953 0.50128335 0.627392 -0.085016884 0.14688854 0.12800118 -0.18051508
-0.30643466 -0.2081446 0.69549614 2.669369 0.21479549 0.6250202 0.07099903 -0.94987017
0.35125193 -0.0013856045 -0.014093027 0.88128966 0.17005673 0.22321486 0.05679979 -0.03494227
-0.12110741 -0.15702584 0.22314924 -0.0022885231 0.5553536 0.3070919 -1.3341802 -1.2194859
0.35620758 -0.11564417 -0.305511 -0.35046187 1.8405676 0.28393573 0.46845815 -0.48291147
1.2678622 -0.004212199 1.8507407 1.9298795 1.3624337 1.0240797 1.5971346 -1.1528624
-0.074767105 -0.0016904084 0.19509673 0.17681502 -0.49912027 -0.18819582 0.14052343 -0.14257815
0.03595167 1.3040582 2.2850077 0.32673272 0.41147903 -0.6816931 -0.8256923 -0.042185772
0.049800348 -0.2848291 0.10436101 0.31409085 0.0025281776 0.097927205 -0.62275547 -0.2606906
0.26430327 -0.3599902 -0.19336498 0.40065125 2.5513537 1.502227 -1.8024223 -1.0357057
0.57359487 -0.4438969 -1.0411066 0.46626008 0.25867668 -0.9120538 0.68176854 0.24139327
-0.06285697 -0.07156372 0.0370164 -0.7049474 1.2912245 -0.1360894 -0.5841138 -1.0241979
0.19385795 -0.8979515 -0.5629527 0.2380367 -0.12737624 -0.4065038 0.10304336 0.30084622
-0.113561265 0.13575947 -0.041555803 -0.119792484 -0.87784356 -0.6234058 -0.6253056 0.22730912
0.07540615 0.95004684 0.046348587 -0.09937103 0.5411415 0.3800364 0.21046151 0.65107894
-1.3002204 1.039181 1.195978 1.8175119 -0.75296444 -0.1529763 -0.04570768 -0.021838082
-0.47369248 0.05971376 -0.2509122 0.5499735 0.8279653 -0.28126073 -0.54488033 0.3759689
2.8804014 -2.190918 -1.2771443 -0.576482 0.40619922 -0.8120703 -0.010014061 0.1146998
1.2842808 -0.095445886 0.06680911 0.08818997 0.011958959 -1.5844586 -1.3311266 -1.4333179
-0.87961763 -0.047108646 -1.1391976 -1.0392965 1.3664376 -1.0123955 0.28296638 -0.2316058
2.3668802 1.9921016 0.16030188 -0.5147581 -0.33035818 0.7323188 -0.43472147 -1.0579681
-0.82998496 -0.2637965 0.94256705 0.70093393 3.322974 -1.0808624 1.7435977 0.3119925
-0.0047246786 0.82262635 0.06895591 -0.46124518 -0.4457411 -0.35157773 -0.22357523 -0.19141361
-0.6199465 -0.62840873 -0.012452569 -0.038963817 0.015316827 0.31262115 -0.82647574 -0.14312267
-0.44169003 1.0256506 0.23062758 -1.8162793 1.3683907 0.48333183 0.1582845 0.80938196
00000000: 8d12 463f 2e7d 45bf bf55 713d a55c 84be
00000010: dc8c 64bf 8f69 8e3e 4fd0 bc3e 54ad 88be
00000020: badc 6c3f fbf6 693f a899 25bf 5439 2bc0
00000030: ac9b 8f3e fe28 29be 18ba 2e3f eebb acbc
00000040: c246 413f f2f8 dfbf 2cc9 333f 8410 bcbf
00000050: 1566 42bf 9b2e ee3e 6875 943f 33b0 2dbd
00000060: 2012 3bbf 4f42 53bf f9b2 56bf 3e21 863f
00000070: 92ae 8c3e a2d9 98bc 0a1f 92be cb68 153e
00000080: d658 d0bd 21fd ae3e a340 9c3d 454b 6a3e
00000090: 88e0 7a3f c1eb dc3f 4798 06bf 3c90 8dbe
000000a0: 38aa 61bf ca33 dfbd 39d6 c8be de50 343f
000000b0: 7199 943e 0421 d43e cb39 bbbe fbd5 83be
000000c0: d99c e8be 32a8 fdbd 30ef 41be ce54 b1bf
000000d0: 5ef6 10bf 897d 2abf db4a f7bd a5ba f93e
000000e0: 791b 76be 6d76 2abf 1b54 003f c39c 203f
000000f0: 551d aebd f369 163e be12 033e f2d8 38be
00000100: 01e5 9cbe dc23 55be 090c 323f f1d6 2a40
00000110: 59f3 5b3e 5301 203f f067 913d b12a 73bf
00000120: 4bd7 b33e 2c9d b5ba 71e6 66bc 339c 613f
00000130: 5a23 2e3e 7092 643e e6a6 683d a01f 0fbd
00000140: 2907 f8bd 62cb 20be 3c81 643e 0cfb 15bb
00000150: a72b 0e3f 263b 9d3e 6bc6 aabf 1d18 9cbf
00000160: d760 b63e dad6 ecbd f06b 9cbe bd6f b3be
00000170: b897 eb3f 0660 913e bfd9 ef3e 2c40 f7be
00000180: 4f49 a23f 7c06 8abb 12e5 ec3f 4b06 f73f
00000190: 3a64 ae3f 0b15 833f e86e cc3f ff90 93bf
000001a0: 7f1f 99bd b290 ddba 70c7 473e ff0e 353e
000001b0: b18c ffbe 68b6 40be 60e5 0f3e 0200 12be
000001c0: 0f42 133d 61eb a63f 913d 1240 8349 a73e
000001d0: 61ad d23e 7083 2ebf 9260 53bf fdca 2cbd
000001e0: 73fb 4b3d 1fd5 91be 3abb d53d 84d0 a03e
000001f0: c8af 253b 0f8e c83d e76c 1fbf 3d79 85be
00000200: c252 873e a350 b8be 7801 46be 2922 cd3e
00000210: 6149 2340 f948 c03f c6b5 e6bf 0192 84bf
00000220: 1dd7 123f 7446 e3be fb42 85bf a4b9 ee3e
00000230: 4571 843e 5c7c 69bf 6288 2e3f cc2f 773e
00000240: 28bb 80bd 0090 92bd 829e 173d 6f77 34bf
00000250: d846 a53f 055b 0bbe 7b88 15bf eb18 83bf
00000260: b382 463e 26e0 65bf ab1d 10bf e5bf 733e
00000270: eb6e 02be 4421 d0be 6608 d33d 8408 9a3e
00000280: cf92 e8bd 8804 0b3e 6b36 2abd c355 f5bd
00000290: 5bba 60bf 8697 1fbf 0714 20bf b9c3 683e
000002a0: 8a6e 9a3d 4536 733f 04d8 3d3d 0a83 cbbd
000002b0: 4088 0a3f 2294 c23e 3983 573e 1cad 263f
000002c0: 9f6d a6bf e203 853f cf15 993f 3ba4 e83f
000002d0: 47c2 40bf d2a5 1cbe fa37 3bbd c7e5 b2bc
000002e0: d287 f2be 6a96 743d 9077 80be 10cb 0c3f
000002f0: 89f5 533f 6801 90be 477d 0bbf ff7e c03e
00000300: 7f58 3840 0038 0cc0 7779 a3bf 5394 13bf
00000310: 58f9 cf3e d7e3 4fbf 0412 24bc bbe7 ea3d
00000320: 5063 a43f 2279 c3bd 37d3 883d f19c b43d
00000330: 82ef 433c 8acf cabf 5b62 aabf f676 b7bf
00000340: 9f2e 61bf fff4 40bd 3ad1 91bf ab07 85bf
00000350: 6de7 ae3f 2d96 81bf f8e0 903e 122a 6dbe
00000360: f77a 1740 2ffd fe3f 2d26 243e 30c7 03bf
00000370: b524 a9be 3f79 3b3f d093 debe 806b 87bf
00000380: e579 54bf 5610 87be 134c 713f 6870 333f
00000390: 9bab 5440 b359 8abf 362e df3f 7bbd 9f3e
000003a0: 7ad1 9abb a497 523f c238 8d3d 5428 ecbe
000003b0: 2d38 e4be ff01 b4be e8f0 64be ee01 44be
000003c0: d0b4 1ebf 65df 20bf dc05 4cbc 8698 1fbd
000003d0: 6ef3 7a3c e10f a03e ea93 53bf c08e 12be
000003e0: 3225 e2be 8548 833f a329 6c3e d77b e8bf
000003f0: 6d27 af3f 4577 f73e 5515 223e a833 4f3f

pod/head_0_ngram_1/kmeans_compression/c_matrix u1 [5501, 6]
241 26 26 26 241 26 139 38
141 119 240 200 230 230 230 230
26 230 115 185 12 43 119 108
159 210 90 45 46 78 86 218
15 192 218 148 153 71 132 162
39 178 160 88 94 58 233 18
128 105 233 63 108 47 241 148
135 135 135 30 165 133 199 246
176 178 81 43 22 203 164 250
105 135 130 7 176 181 185 3
94 134 137 177 20 218 19 40
135 241 80 192 66 224 110 248
211 87 5 212 155 0 186 125
81 193 131 164 241 216 241 135
26 103 115 36 52 105 84 194
73 130 60 209 60 32 49 151
139 214 56 83 153 120 85 142
176 14 174 43 218 191 72 30
47 243 129 191 250 250 241 86
40 86 135 26 49 145 11 170
113 72 78 150 11 254 113 97
43 84 201 127 240 191 76 125
199 127 51 121 58 107 199 193
13 248 230 230 230 230 230 230
8 20 103 15 86 174 79 169
165 221 113 136 26 230 26 26
230 241 185 143 123 27 19 65
153 36 39 148 100 77 195 207
215 68 110 122 200 120 9 160
252 196 157 79 138 62 220 64
217 209 69 205 184 164 30 30
218 218 252 15 136 97 119 186
00000000: f11a 1a1a f11a 8b26 8d77 f0c8 e6e6 e6e6
00000010: 1ae6 73b9 0c2b 776c 9fd2 5a2d 2e4e 56da
00000020: 0fc0 da94 9947 84a2 27b2 a058 5e3a e912
00000030: 8069 e93f 6c2f f194 8787 871e a585 c7f6
00000040: b0b2 512b 16cb a4fa 6987 8207 b0b5 b903
00000050: 5e86 89b1 14da 1328 87f1 50c0 42e0 6ef8
00000060: d357 05d4 9b00 ba7d 51c1 83a4 f1d8 f187
00000070: 1a67 7324 3469 54c2 4982 3cd1 3c20 3197
00000080: 8bd6 3853 9978 558e b00e ae2b dabf 481e
00000090: 2ff3 81bf fafa f156 2856 871a 3191 0baa
000000a0: 7148 4e96 0bfe 7161 2b54 c97f f0bf 4c7d
000000b0: c77f 3379 3a6b c7c1 0df8 e6e6 e6e6 e6e6
000000c0: 0814 670f 56ae 4fa9 a5dd 7188 1ae6 1a1a
000000d0: e6f1 b98f 7b1b 1341 9924 2794 644d c3cf
000000e0: d744 6e7a c878 09a0 fcc4 9d4f 8a3e dc40
000000f0: d9d1 45cd b8a4 1e1e dada fc0f 8861 77ba

pod/head_0_ngram_2/kmeans_compression/b_matrix f4 [256, 4]
0.28577587 -0.053690672 0.124398455 -0.08235245 0.10759645 0.6637625 -0.395333 -0.01994222
-0.41404384 0.59020853 0.28271693 -0.4484877 -0.11848195 -0.68989414 -0.3202261 -0.61633205
-0.6596941 -1.1285347 -0.16431345 0.10936232 0.03379327 -0.80272675 -0.03128238 -0.19126453
0.52613676 0.17447008 0.26918104 0.51906186 0.14571555 -0.2728798 0.08513385 0.42220312
-0.1741629 0.054500386 0.21159108 0.06881316 -0.28873184 0.2124378 -0.58044237 0.49547422
0.29787257 -0.33546865 0.12854849 0.027917277 0.3404647 0.12704179 0.10448307 -0.3086072
0.030598054 0.89370817 0.6370516 0.54939026 0.7204116 0.31242222 -0.46471304 0.023516288
-0.53596085 -0.1071093 0.1316517 0.27942246 -0.9809792 0.42233673 -0.47840008 -0.62526464
0.12103545 0.17486568 0.004161764 0.4728692 -0.59827757 1.0747893 1.1647311 -0.46893704
-0.794333 0.10130094 -0.679491 0.49857897 -1.1802899 -0.97557914 0.27716017 0.8461771
0.07541189 -0.61997545 0.44436076 -0.5025511 -0.13744943 0.09362306 0.6965523 0.10216683
-0.20162997 -0.4411941 -0.6691397 0.0006889034 0.236124 0.20348477 -0.7867835 0.06243753
0.0047569526 0.4032569 -0.5042389 -0.0065045995 0.10222938 0.4062466 0.00044603524 0.08424282
-0.14404546 -0.28194484 0.24632627 0.23941076 0.7053218 0.1082209 0.28699437 -0.011485006
0.41231284 0.097605355 -0.011653767 0.26423174 0.07173168 -0.13193336 0.5332619 0.2710962
-0.052827436 -0.034689136 0.084080696 -0.13781223 -0.10272929 -0.03239497 -1.2925048 -0.07431126
0.83785236 0.110406265 0.3760102 1.0699531 -0.92984533 -0.28822765 1.1211457 -0.8294438
0.67898965 -0.546725 -0.9015787 -0.38273394 -0.0518592 -0.08398299 -0.25708982 -0.08159504
-0.3489989 -0.11861378 0.10624164 -0.012965905 0.88379985 0.13486256 0.049963817 -1.3883537
0.0034332904 0.04759163 -0.09577134 -0.24922946 -0.69494325 0.886082 0.1699727 0.3759099
-0.33513945 0.64422 -0.3444718 -0.5700379 -0.101922214 0.8642208 0.41748208 -0.5773049
0.19037047 0.0024772235 0.11162024 -0.8310635 -0.44915733 -0.39398074 0.581378 -0.7566307
-0.18511179 0.737903 0.9223491 0.035649005 0.11816662 -0.5869246 -0.3918241 0.16281404
1.2212719 1.1863815 -0.29012835 0.780144 -0.4491856 -0.08179614 0.10287071 -0.36333358
0.6711196 0.2234922 0.75259227 -0.4483203 -1.2644299 0.519783 0.8705583 -0.012595683
0.23921698 -0.16285232 0.22126822 0.1868522 1.1479752 0.5512647 -0.97881657 0.35166472
0.6736511 -0.19630072 0.06589902 -0.18931347 0.5648938 0.6913328 -0.7812531 -0.14223726
-0.20086105 -0.3127975 0.06601353 0.0090299165 0.26965985 -0.4602471 -0.042885303 -0.36726904
-0.49621505 0.16738209 0.36682644 1.3425084 0.29341766 0.4617155 0.57821155 -0.16183177
0.70689213 1.2405357 0.15241829 -0.04247367 -0.41965145 0.04720765 0.37194297 0.23336072
0.2926698 -0.9406061 -0.34864384 0.23934512 -0.6109457 -0.19078727 0.56599796 -0.27593517
-0.20705602 1.134276 0.02591056 -0.32413313 -0.7411034 -0.10088494 -0.1922694 0.7611152
00000000: 3751 923e c0ea 5bbd 9ec4 fe3d 67a8 a8bd
00000010: 875b dc3d 57ec 293f 1669 cabe de5d a3bc
00000020: 8efd d3be e817 173f 46c0 903e 2ea0 e5be
00000030: aaa6 f2bd e79c 30bf adf4 a3be f0c7 1dbf
00000040: b6e1 28bf d373 90bf c941 28be 5af9 df3d
00000050: d06a 0a3d 807f 4dbf f421 00bd d9da 43be
00000060: e6b0 063f 49a8 323e 19d2 893e 3de1 043f
00000070: 7536 153e e7b6 8bbe a85a ae3d 022b d83e
00000080: c257 32be cc3b 5f3d 55ab 583e eaed 8c3d
00000090: a9d4 93be 4b89 593e df97 14bf ccae fd3e
000000a0: c182 983e 8cc2 abbe 37a2 033e c6b2 e43c
000000b0: 6451 ae3e 3e17 023e 38fb d53d c301 9ebe
000000c0: c5a8 fa3c 0fca 643f d015 233f d7a4 0c3f
000000d0: e56c 383f cef5 9f3e deee edbe 3ba5 c03c
000000e0: bb34 09bf 1f5c dbbd b4cf 063e 7610 8f3e
000000f0: 7421 7bbf 853c d83e dbf0 f4be 5811 20bf
00000100: 6fe1 f73d fd0f 333e 685f 883b e91b f23e
00000110: b828 19bf b292 893f e915 953f 8418 f0be
00000120: 6859 4bbf de76 cf3d 1ff3 2dbf be45 ff3e
00000130: bd13 97bf 8ebf 79bf f0e7 8d3e 109f 583f
00000140: 8d71 9a3d b6b6 1ebf 4183 e33e 30a7 00bf
00000150: 8bbf 0cbe 72bd bf3d 4051 323f d83c d13d
00000160: 1678 4ebe 31e4 e1be bd4c 2bbf 8697 343a
00000170: 7dca 713e 505e 503e a56a 49bf 7fbe 7f3d
00000180: 36e0 9b3b b077 ce3e cd15 01bf 8924 d5bb
00000190: a35d d13d 8eff cf3e d6d9 e939 8087 ac3d
000001a0: a780 13be 135b 90be f43c 7c3e 1828 753e
000001b0: f88f 343f eba2 dd3d edf0 923e 9b2b 3cbc
000001c0: ab1a d33e 51e5 c73d 71ef 3ebc 6249 873e
000001d0: 0fe8 923d 8a19 07be da83 083f 1fcd 8a3e
000001e0: 9561 58bd 3216 0ebd 8032 ac3d a61e 0dbe
000001f0: bc63 d2bd 97b0 04bd cc70 a5bf 8030 98bd
00000200: 7e7d 563f ae1c e23d 6984 c03e 39f4 883f
00000210: 580a 6ebf 9392 93be b481 8f3f 6e56 54bf
00000220: 44d2 2d3f 2bf6 0bbf ddcd 66bf b4f5 c3be
00000230: 506a 54bd 46ff abbd 47a1 83be 4d1b a7bd
00000240: fcaf b2be c8eb f2bd 3895 d93d f26e 54bc
00000250: b540 623f 6919 0a3e dca6 4c3d 93b5 b1bf
00000260: 0e01 613b 71ef 423d c423 c4bd 0236 7fbe
00000270: cde7 31bf 45d6 623f 530d 2e3e 4377 c03e
00000280: 6697 abbe 9aeb 243f 9c5e b0be 01ee 11bf
00000290: 98bc d0bd 933d 5d3f 36c0 d53e 41ca 13bf
000002a0: 7af0 423e ea58 223b 2799 e43d 94c0 54bf
000002b0: f3f7 e5be d8b7 c9be 30d5 143f 8db2 41bf
000002c0: f28d 3dbe 36e7 3c3f 121f 6c3f b104 123d
000002d0: 5701 f23d b140 16bf 2b9d c8be b9b8 263e
000002e0: a352 9c3f 59db 973f b48b 94be 84b7 473f
000002f0: a8fb e5be bc84 a7bd e1ad d23d dc06 babe
00000300: 7ece 2b3f 24db 643e e3a9 403f 3d8a e5be
00000310: d7d8 a1bf 8010 053f e9dc 5e3f 205e 4ebc
00000320: 4cf5 743e c2c2 26be 2394 623e 2f56 3f3e
00000330: daf0 923f af1f 0d3f b993 7abf 660d b43e
00000340: 6674 2c3f 0e03 49be 11f6 863d 64db 41be
00000350: e19c 103f 30fb 303f 3400 48bf a5a6 11be
00000360: 85ae 4dbe fe26 a0be 1a32 873d 37f2 133c
00000370: db10 8a3e 82a5 ebbe 80a8 2fbd b00a bcbe
00000380: e60f febe 3666 2b3e add0 bb3e 51d7 ab3f
00000390: d73a 963e f965 ec3e ac05 143f 3ab7 25be
000003a0: e2f6 343f e0c9 9e3f 8a13 1c3e dff8 2dbd
000003b0: 8edc d6be cf5c 413d 4f6f be3e 1df6 6e3e
000003c0: d1d8 953e 90cb 70bf 7281 b2be e316 753e
000003d0: f066 1cbf bd5d 43be 3ee5 103f 6047 8dbe
000003e0: 7e06 54be f52f 913f 6242 d43c c7f4 a5be
000003f0: f4b8 3dbf c39c cebd 45e2 44be 72d8 423f

pod/head_0_ngram_2/kmeans_compression/c_matrix u1 [5501, 6]
144 144 144 30 236 236 188 102
143 245 252 1 219 169 242 149
36 37 180 110 29 207 107 14
0 177 176 155 110 60 197 22
9 101 132 41 251 155 241 236
223 9 186 188 113 147 125 225
16 147 220 233 98 188 218 69
121 146 116 11 115 35 49 236
248 88 7 132 95 206 88 69
83 54 6 230 45 152 247 170
162 116 77 244 151 61 184 38
55 176 11 45 56 179 154 206
15 86 222 245 230 13 145 177
189 109 207 91 247 72 62 83
49 221 97 35 217 7 245 126
203 237 78 245 230 132 120 243
118 60 158 57 218 179 151 143
66 218 203 245 73 245 22 24
237 66 88 99 126 28 93 187
154 171 107 205 113 113 231 196
178 81 22 14 169 184 214 207
30 158 28 113 188 161 180 88
57 130 28 10 81 20 191 63
95 96 158 99 158 78 89 230
159 179 24 85 65 29 129 219
58 203 191 127 15 188 140 109
184 155 63 113 205 24 54 227
215 7 6 125 15 43 10 236
242 179 92 153 189 158 144 154
135 148 0 21 214 129 145 198
180 49 91 167 184 188 86 50
85 218 197 98 143 145 102 88
00000000: 9090 901e ecec bc66 8ff5 fc01 dba9 f295
00000010: 2425 b46e 1dcf 6b0e 00b1 b09b 6e3c c516
00000020: 0965 8429 fb9b f1ec df09 babc 7193 7de1
00000030: 1093 dce9 62bc da45 7992 740b 7323 31ec
00000040: f858 0784 5fce 5845 5336 06e6 2d98 f7aa
00000050: a274 4df4 973d b826 37b0 0b2d 38b3 9ace
00000060: 0f56 def5 e60d 91b1 bd6d cf5b f748 3e53
00000070: 31dd 6123 d907 f57e cbed 4ef5 e684 78f3
00000080: 763c 9e39 dab3 978f 42da cbf5 49f5 1618
00000090: ed42 5863 7e1c 5dbb 9aab 6bcd 7171 e7c4
000000a0: b251 160e a9b8 d6cf 1e9e 1c71 bca1 b458
000000b0: 3982 1c0a 5114 bf3f 5f60 9e63 9e4e 59e6
000000c0: 9fb3 1855 411d 81db 3acb bf7f 0fbc 8c6d
000000d0: b89b 3f71 cd18 36e3 d707 067d 0f2b 0aec
000000e0: f2b3 5c99 bd9e 909a 8794 0015 d681 91c6
000000f0: b431 5ba7 b8bc 5632 55da c562 8f91 6658

pod/head_0_ngram_3/kmeans_compression/b_matrix f4 [256, 4]
-0.6848409 0.07354326 0.7927319 -0.96278954 0.8787513 -0.71727055 -0.6939436 -0.00092703674
-0.049772944 0.50285804 -0.5143748 -0.28947008 1.245864 -0.136426 1.0128396 0.0030175268
-0.44324735 -0.05867182 -0.81977576 -0.5958528 -0.2095965 -0.37905356 -0.15852766 0.8564999
0.5840932 0.008250296 -0.39849827 1.2710192 -0.22617379 -0.25261435 -0.08382777 -0.51501125
-0.40710095 0.9233647 0.26415932 -1.082702 -0.8349007 0.34428108 -0.86833656 -0.120848864
-0.9757101 0.50189364 0.39133716 0.08259458 -0.2815701 -0.06613308 0.54869 0.5384602
-0.45405355 -0.51376224 -0.25959945 -0.7844524 0.53771126 0.40064275 -0.33555728 -0.91584766
-0.21531147 0.061397176 0.29522574 -0.66259295 -0.73291445 -0.31300768 -0.17367586 -0.27655143
0.0751998 -0.12377072 -0.5197629 -0.40095428 -0.025857145 0.5485986 -0.12283322 -0.23390451
-0.08161207 -0.5386645 0.5615787 0.17346096 0.066609435 -0.18945494 -0.23962924 -0.13328643
0.8221628 -0.14573021 0.023292819 -0.06500359 -0.5399916 0.2667034 0.1564955 0.14736988
0.34160268 -0.759942 0.08220861 -0.4110123 0.09032847 0.69366986 0.2270932 -0.077241935
-0.1348784 -1.2024397 -0.27049392 -0.82327956 1.0029882 -0.5404552 -0.08042022 -0.5723229
-0.18243384 0.25227863 0.335322 -0.25256622 0.82230824 -0.73162085 0.08794192 0.032457586
1.0075893 0.608809 0.88020086 -1.1131821 -0.41453835 0.07884272 0.4211398 -0.15884937
-0.37018013 -0.39420605 -0.11187526 -0.15732951 0.069804914 -0.010290854 -0.039466143 -0.60385716
-0.016116625 0.47132728 0.5673691 -0.035707355 0.9752008 0.51010746 -0.36522618 0.112199135
0.93293107 -0.7848285 -0.2510391 0.69328403 -0.23186216 -0.14533097 0.17776439 -0.08814839
-0.67234075 -0.70747215 -0.4952599 -0.054060187 -0.19034885 0.94417584 -0.40177435 0.31867507
-1.0222436 -0.7734683 0.09100891 0.30039212 -0.82312286 0.18591203 0.56812835 0.62112993
0.7826585 0.09145508 -0.63636786 0.014552394 -0.029439706 -0.2540252 -0.079584435 0.028274547
0.4232648 1.2272273 -0.19947517 1.0978291 -0.67454666 0.4741764 -0.64724845 0.34456307
-0.4777593 -0.23230012 -0.6687392 0.88540834 -0.17970623 -0.29466373 0.16534613 -0.95358646
-0.080092296 0.12070154 -0.2376417 -0.34787264 -0.34304008 0.13447857 -0.66521806 -0.22435352
0.35386163 0.3616689 0.2669356 -0.21845242 -0.32478622 0.10986039 0.056268655 0.7726515
0.51884836 -0.36296403 0.34100205 -1.1400505 -0.36379802 0.5267334 0.5895204 0.399958
0.026250029 0.004016151 0.007955413 0.0018969518 -0.6812092 0.21507655 0.8957388 -0.10632155
0.76818585 -0.13237548 -0.62293226 0.5309407 -0.034833413 -0.08009656 -0.18237345 0.22043283
0.23752576 -0.5210876 -0.46060807 -0.16063623 0.08815633 0.10212293 0.56105596 0.43925717
0.17675652 0.5805211 0.041016247 0.20033655 0.8436014 -0.71691173 0.51430106 1.2365109
-0.20228101 -0.33966964 0.13734685 0.52689826 -0.16845582 -0.20776474 0.77084154 -0.04469748
0.3008066 0.21926802 0.0016161213 -0.009872375 -0.30923682 0.4992567 -1.5661703 0.6049282
00000000: bc51 2fbf d99d 963d 7af0 4a3f 6079 76bf
00000010: d8f5 603f 0b9f 37bf 4aa6 31bf 6204 73ba
00000020: b7de 4bbd 4ebb 003f 11ae 03bf 6c35 94be
00000030: 7978 9f3f 42b3 0bbe baa4 813f b3c1 453b
00000040: 51f1 e2be dd51 70bd d3dc 51bf cf89 18bf
00000050: 77a0 56be 4f13 c2be 1355 22be 9443 5b3f
00000060: 2287 153f 402c 073c f707 ccbe c2b0 a23f
00000070: 1a9a 67be ab56 81be e5ad abbd c7d7 03bf
00000080: 896f d0be a161 6c3f e43f 873e fb95 8abf
00000090: 0dbc 55bf 9c45 b03e 4e4b 5ebf 9c7f f7bd
000000a0: 23c8 79bf 1a7c 003f 585d c83e 5927 a93d
000000b0: f529 90be c870 87bd f376 0c3f 87d8 093f
000000c0: b579 e8be ec85 03bf 38ea 84be dfd1 48bf
000000d0: 72a7 093f 0c21 cd3e 2ace abbe fe74 6abf
000000e0: 9c7a 5cbe 9b7b 7b3d d427 973e b19f 29bf
000000f0: 48a0 3bbf 8b42 a0be 16d8 31be 2698 8dbe
00000100: 5a02 9a3d 817b fdbd 2e0f 05bf e149 cdbe
00000110: 5dd2 d3bc f570 0c3f fc8f fbbd aa84 6fbe
00000120: 3b24 a7bd ebe5 09bf 9fc3 0f3f c09f 313e
00000130: 876a 883d 7a00 42be 5e61 75be 3d7c 08be
00000140: 4379 523f 4d3a 15be 95d0 be3c 9a20 85bd
00000150: e43c 0abf 598d 883e 5b40 203e 21e8 163e
00000160: 8ce6 ae3e 8f8b 42bf fd5c a83d 3470 d2be
00000170: 22fe b83d 5994 313f 1f8b 683e 0531 9ebd
00000180: 901d 0abe 8be9 99bf 2e7e 8abe 73c2 52bf
00000190: eb61 803f 465b 0abf 5bb3 a4bd c183 12bf
000001a0: f0cf 3abe aa2a 813e 53af ab3e 5c50 81be
000001b0: cb82 523f 814b 3bbf e51a b43d 3ff2 043d
000001c0: b0f8 803f e8da 1b3f d854 613f c07c 8ebf
000001d0: 5f3e d4be 4b78 a13d a39f d73e 69a9 22be
000001e0: 4088 bdbe 60d5 c9be db1e e5bd fd1a 21be
000001f0: e1f5 8e3d f89a 28bc 40a7 21bd 6296 1abf
00000200: 0307 84bc cf51 f13e 1a3f 113f e041 12bd
00000210: c2a6 793f 6796 023f edfe babe a9c8 e53d
00000220: 92d4 6e3f 85ea 48bf 3288 80be 107b 313f
00000230: 466d 6dbe a4d1 14be de07 363e 2587 b4bd
00000240: 861e 2cbf e51c 35bf b592 fdbe 376e 5dbd
00000250: cfea 42be 82b5 713f 5eb5 cdbe 6129 a33e
00000260: e1d8 82bf 0502 46bf e162 ba3d ffcc 993e
00000270: 2eb8 52bf b95f 3e3e dc70 113f 5f02 1f3f
00000280: 4f5c 483f cd4c bb3d 01e9 22bf 2a6d 6e3c
00000290: 8a2b f1bc 970f 82be 2afd a2bd 06a0 e73c
000002a0: 2ab6 d83e c915 9d3f 3843 4cbe aa85 8c3f
000002b0: 17af 2cbf 40c7 f23e 13b2 25bf 926a b03e
000002c0: de9c f4be 15e0 6dbe 7e32 2bbf 1faa 623f
000002d0: e904 38be 2ade 96be 7f50 293e 3e1e 74bf
000002e0: 6e07 a4bd 5e32 f73d 5958 73be 5d1c b2be
000002f0: f3a2 afbe c0b4 093e bb4b 2abf eebc 65be
00000300: 5a2d b53e ab2c b93e c8ab 883e feb1 5fbe
00000310: 614a a6be 7cfe e03d f679 663d 7dcc 453f
00000320: 3fd3 043f 6cd6 b9be d297 ae3e 2ded 91bf
00000330: bc43 babe 00d8 063f cfea 163f 4cc7 cc3e
00000340: 4d0a d73c eb99 833b 6c57 023c 24a3 f83a
00000350: ba63 2ebf 073d 5c3e 234f 653f 1dbf d9bd
00000360: d4a7 443f 708d 07be 7d78 1fbf bbeb 073f
00000370: 7bad 0ebd aa09 a4bd 1bc0 3abe 25b9 613e
00000380: f439 733e ff65 05bf d2d4 ebbe d37d 24be
00000390: 4e8b b43d d425 d13d 5da1 0f3f 51e6 e03e
000003a0: a9ff 343e 089d 143f a700 283d 0625 4d3e
000003b0: 43f6 573f 8787 37bf 3ca9 033f fd45 9e3f
000003c0: c122 4fbe 2ee9 adbe a7a4 0c3e cee2 063f
000003d0: af7f 2cbe 48c0 54be df55 453f b414 37bd
000003e0: 5303 9a3e cc87 603e 08d4 d33a bebf 21bc
000003f0: 4a54 9ebe 939e ff3e 4578 c8bf 93dc 1a3f

pod/head_0_ngram_3/kmeans_compression/c_matrix u1 [13001, 6]
52 52 52 52 52 52 41 131
185 143 189 78 52 53 167 249
121 249 182 214 69 114 231 224
232 7 108 238 87 65 26 103
29 108 35 246 172 18 70 238
94 155 78 146 148 103 218 248
209 161 157 29 110 158 66 242
220 184 140 78 219 99 187 82
254 212 105 238 152 105 201 147
183 223 207 206 211 70 103 196
162 115 55 96 216 76 193 188
26 52 184 48 100 105 223 130
249 185 46 214 115 122 242 205
209 243 133 60 81 72 65 139
152 157 47 11 11 78 235 221
221 145 143 84 97 52 142 254
80 22 242 254 144 99 21 206
43 14 221 221 173 62 209 196
64 30 239 138 105 247 164 36
105 72 150 185 146 87 11 194
30 95 133 133 146 143 65 205
138 49 138 252 131 58 80 144
102 34 72 208 122 78 157 207
75 47 75 105 216 94 189 19
189 30 167 40 144 133 104 105
206 196 202 143 232 108 105 193
69 221 62 252 214 159 72 141
235 167 45 250 251 122 150 224
75 188 10 179 14 7 89 100
166 159 139 236 95 171 211 197
214 130 252 251 118 94 94 205
103 55 205 110 78 81 193 109
00000000: 3434 3434 3434 2983 b98f bd4e 3435 a7f9
00000010: 79f9 b6d6 4572 e7e0 e807 6cee 5741 1a67
00000020: 1d6c 23f6 ac12 46ee 5e9b 4e92 9467 daf8
00000030: d1a1 9d1d 6e9e 42f2 dcb8 8c4e db63 bb52
00000040: fed4 69ee 9869 c993 b7df cfce d346 67c4
00000050: a273 3760 d84c c1bc 1a34 b830 6469 df82
00000060: f9b9 2ed6 737a f2cd d1f3 853c 5148 418b
00000070: 989d 2f0b 0b4e ebdd dd91 8f54 6134 8efe
00000080: 5016 f2fe 9063 15ce 2b0e dddd ad3e d1c4
00000090: 401e ef8a 69f7 a424 6948 96b9 9257 0bc2
000000a0: 1e5f 8585 928f 41cd 8a31 8afc 833a 5090
000000b0: 6622 48d0 7a4e 9dcf 4b2f 4b69 d85e bd13
000000c0: bd1e a728 9085 6869 cec4 ca8f e86c 69c1
000000d0: 45dd 3efc d69f 488d eba7 2dfa fb7a 96e0
000000e0: 4bbc 0ab3 0e07 5964 a69f 8bec 5fab d3c5
000000f0: d682 fcfb 765e 5ecd 6737 cd6e 4e51 c16d

pod/head_0_ngram_4/kmeans_compression/b_matrix f4 [256, 4]
0.72055054 0.09135589 0.32639813 0.89058244 0.7003384 -0.082798176 0.26378107 -0.14881411
0.50866807 0.30877295 0.31871417 0.3229051 0.22657882 0.70233864 0.003869521 0.08649497
-0.122666106 -0.5866763 -0.28615603 0.19526692 0.5215992 -0.12548272 0.07992747 -0.8666853
-0.19972098 0.2815426 0.74127465 -0.78406024 -0.17274918 0.09508633 0.1491299 -0.26101136
0.12468375 -0.5619707 0.86887425 0.18730548 0.3146112 1.3993574 0.09795097 -0.27398574
-0.0054496336 -0.17650808 0.050146814 -0.45647207 -0.13076836 -0.25845516 0.27791545 0.5804413
-0.49934268 -0.5912344 -0.643639 -0.30205294 -0.16737208 0.61847574 -0.15515038 0.12975827
-0.055102155 0.093820825 -0.061644543 -0.083356224 0.5488923 -0.36270857 0.13797098 0.09961794
0.29001588 0.017922314 0.13332506 0.26604697 0.49296448 0.40586692 -0.28509307 0.10447341
0.038684133 0.017045133 -0.87287426 0.12365911 0.5872383 -0.42596543 0.2272265 0.733592
-0.15515327 0.35428187 0.4257978 0.6125499 -0.12082765 0.053327397 -0.20577008 0.16958097
-0.51025385 0.09322268 -0.2764813 -0.15926981 -0.57924026 -0.100140005 0.1546549 0.0300712
-0.50660497 -0.059448138 0.10121855 -0.41931763 -0.30190194 -0.29629782 0.21910146 0.029591452
0.4735296 -0.095913775 -0.38597548 0.0588851 -0.40177962 0.024233516 -0.64153165 -0.9178619
0.014035464 0.65180135 0.4202779 -0.005571605 -0.0798874 1.0277354 0.26283073 0.3136824
-0.28347751 0.3279397 0.32728145 -0.5129187 -0.44350237 0.75350493 0.3692608 0.65075207
-0.1301954 0.22180773 0.44398904 0.086987756 -0.5204107 -0.31488186 -0.15418075 -0.14515172
-0.23862652 0.43515554 0.22873442 -0.15768436 0.30670103 0.4563479 0.3843829 -0.31572562
0.23960948 0.14295384 0.40954608 0.09692418 0.13929945 -0.8699746 -0.111111775 0.6909523
0.23184428 -0.0072857677 0.27470616 -0.39944372 0.03808664 0.07142295 -0.71484166 -0.19340934
0.1033111 0.45872906 -0.4249076 -0.15774615 -0.14397176 -0.40833288 0.05643822 0.37488773
0.17547305 -0.79429173 -0.87856156 0.2660928 0.022738395 0.15313579 0.24972466 0.3246667
-0.7846826 0.24582027 -0.35467646 -0.507805 0.064078555 0.62634045 0.064399414 0.43863267
-0.07081834 -0.6625191 0.16319636 -0.004753766 -0.3957614 -0.69260037 -1.0139701 0.15519232
-0.3658859 0.19974387 -0.08855592 -0.50074893 0.9321458 -0.46954387 0.16092095 -0.25688925
-0.83371794 -0.22780068 -0.6639097 -0.07992484 0.26486528 0.39046684 -0.05323523 -0.13971275
0.62738156 0.79440576 0.46733353 0.5765704 0.040174946 0.57990247 0.1376124 -0.31299815
-0.21555193 -0.07701972 -0.22760412 -0.09087976 0.71664345 -0.63926435 0.3876584 -0.01553371
0.44717756 0.082129 -0.08659822 -0.06223829 -0.2092173 -0.1360435 -0.3238874 0.23430406
0.47752985 -0.67709523 -0.025391387 -0.16085486 -0.17979114 0.14137796 0.21904589 0.08502884
0.58346766 0.69782144 -0.41972768 -0.27604318 0.33139136 0.07441254 0.894443 0.63999146
0.01394031 -0.018448023 -0.4082634 0.10328535 -0.85875636 0.16961187 -0.08921604 0.054390047
00000000: 0076 383f cc18 bb3d a81d a73e 36fd 633f
00000010: 6149 333f 1792 a9bd 500e 873e ba62 18be
00000020: 1238 023f 7d17 9e3e 812e a33e d153 a53e
00000030: 4704 683e 77cc 333f ca97 7d3b 4624 b13d
00000040: 5e38 fbbd 6b30 16bf 0b83 92be 0df4 473e
00000050: 8687 053f 8b7e 00be 03b1 a33d 16df 5dbf
00000060: a883 4cbe 5a26 903e 2dc4 3d3f 2cb8 48bf
00000070: 29e5 30be 9fbc c23d 82b5 183e 48a3 85be
00000080: 325a ff3d 50dd 0fbf 8b6e 5e3f 02cd 3f3e
00000090: b814 a13e 251e b33f 859a c83d dc47 8cbe
000000a0: d792 b2bb 89be 34be bf66 4d3d b5b6 e9be
000000b0: 24e8 05be 3c54 84be ef4a 8e3e cd97 143f
000000c0: d8a9 ffbe 235b 17bf 87c5 24bf afa6 9abe
000000d0: 9663 2bbe 6d54 1e3f bedf 1ebe 5adf 043e
000000e0: ccb2 61bd 2225 c03d fd7e 7cbd abb6 aabd
000000f0: 3584 0c3f f0b4 b9be 4448 0d3e 7e04 cc3d
00000100: f67c 943e d1d1 923c 5d86 083e 4f37 883e
00000110: d765 fc3e cacd cf3e b8f7 91be 28f6 d53d
00000120: 4173 1e3d 3ca2 8b3c b074 5fbf fd40 fd3d
00000130: 4055 163f 2418 dabe 10ae 683e afcc 3b3f
00000140: 80e0 1ebe 6f64 b53e 2b02 da3e 12d0 1c3f
00000150: 7d74 f7bd d46d 5a3d 64b5 52be a2a6 2d3e
00000160: ff9f 02bf 88eb be3d f58e 8dbe a017 23be
00000170: 1749 14bf 3416 cdbd db5d 1e3e e157 f63c
00000180: ddb0 01bf e47f 73bd ac4b cf3d cdb0 d6be
00000190: e492 9abe 59b4 97be 225c 603e c669 f23c
000001a0: 7972 f23e 716e c4bd 949e c5be 8131 713d
000001b0: 0fb6 cdbe 5e85 c63c 6b3b 24bf fff8 6abf
000001c0: 01f5 653c 74dc 263f aa2e d73e 0392 b6bb
000001d0: 019c a3bd d58c 833f c091 863e fb9a a03e
000001e0: f723 91be b6e7 a73e 6f91 a73e a44e 03bf
000001f0: be12 e3be b3e5 403f c00f bd3e b097 263f
00000200: f151 05be 9121 633e 8852 e33e a326 b23d
00000210: a339 05bf 3238 a1be 8fe1 1dbe a7a2 14be
00000220: 835a 74be b5cc de3e 5b39 6a3e 0278 21be
00000230: eb07 9d3e 6fa6 e93e d6cd c43e caa6 a1be
00000240: 305c 753e 7e62 123e 06b0 d13e 2f80 c63d
00000250: 84a4 0e3e a8b6 5ebf 928e e3bd 40e2 303f
00000260: 9668 6d3e 73bd eebb 49a6 8c3e e383 ccbe
00000270: bd00 1c3d 3246 923d ddff 36bf 190d 46be
00000280: c594 d33d 89de ea3e 7d8d d9be 3588 21be
00000290: 556d 13be 0211 d1be c32b 673d 49f1 bf3e
000002a0: 35af 333e b456 4bbf 69e9 60bf 513d 883e
000002b0: df45 ba3c a1cf 1c3e d2b7 7f3e b73a a63e
000002c0: f5e0 48bf 4fb8 7b3e 2798 b5be 82ff 01bf
000002d0: 9e3b 833d d957 203f d7e3 833d 7694 e03e
000002e0: 3509 91bd da9a 29bf f21c 273e 7bc5 9bbb
000002f0: 3da1 cabe 424e 31bf c6c9 81bf bcea 1e3e
00000300: 6655 bbbe a889 4c3e ce5c b5bd 1531 00bf
00000310: 1ba1 6e3f 0e68 f0be 76c8 243e fd86 83be
00000320: 8a6e 55bf 9544 69be fcf5 29bf a2af a3bd
00000330: 6c9c 873e 45eb c73e 2f0d 5abd dc10 0fbe
00000340: 149c 203f 2d5e 4b3f 5746 ef3e 1e9a 133f
00000350: 7c8e 243d 7d74 143f 44ea 0c3e 4b41 a0be
00000360: a5b9 5cbe 84bc 9dbd 0e11 69be 2b1f babd
00000370: f275 373f d4a6 23bf 297b c63e 1a81 7ebc
00000380: 75f4 e43e 4033 a83d 685a b1bd 94ed 7ebd
00000390: 0f3d 56be fd4e 0bbe 92d4 a5be 67ed 6f3e
000003a0: cb7e f43e 1d56 2dbf 9901 d0bc 23b7 24be
000003b0: 2b1b 38be 62c5 103e 914d 603e 9a23 ae3d
000003c0: 235e 153f 6da4 323f 8ce6 d6be 8855 8dbe
000003d0: 21ac a93e 9a65 983d 37fa 643f 7bd6 233f
000003e0: e665 643c 4f20 97bc e607 d1be 4587 d33d
000003f0: 75d7 5bbf bcae 2d3e e6b6 b6bd 19c8 5e3d

pod/head_0_ngram_4/kmeans_compression/c_matrix u1 [13001, 6]
14 139 14 14 14 139 68 117
92 214 217 180 235 143 150 198
96 181 172 253 20 141 44 227
248 211 139 45 23 220 212 81
105 69 209 176 20 238 23 167
65 180 158 110 190 136 85 34
45 176 139 100 232 38 45 97
169 251 140 246 7 2 0 69
163 108 25 57 118 79 127 138
233 58 221 23 111 148 252 171
225 97 205 101 125 71 241 246
45 54 92 29 122 182 118 88
196 34 246 94 76 25 235 43
111 53 215 133 151 54 158 14
7 131 20 121 59 52 214 125
10 224 198 203 11 173 138 229
62 65 194 157 240 210 34 48
238 111 101 217 28 46 236 32
230 21 66 253 28 123 82 120
3 249 30 180 202 16 140 199
44 195 2 30 77 229 251 187
191 177 172 66 92 70 32 125
50 40 46 177 51 247 105 203
5 206 131 169 32 25 241 13
135 182 32 104 48 232 44 32
108 56 247 28 233 160 100 237
249 82 89 51 25 132 191 61
16 202 57 148 125 87 236 70
248 167 108 227 28 172 65 226
64 171 248 139 180 206 242 80
211 251 198 243 25 76 184 22
93 89 243 64 227 235 214 235
00000000: 0e8b 0e0e 0e8b 4475 5cd6 d9b4 eb8f 96c6
00000010: 60b5 acfd 148d 2ce3 f8d3 8b2d 17dc d451
00000020: 6945 d1b0 14ee 17a7 41b4 9e6e be88 5522
00000030: 2db0 8b64 e826 2d61 a9fb 8cf6 0702 0045
00000040: a36c 1939 764f 7f8a e93a dd17 6f94 fcab
00000050: e161 cd65 7d47 f1f6 2d36 5c1d 7ab6 7658
00000060: c422 f65e 4c19 eb2b 6f35 d785 9736 9e0e
00000070: 0783 1479 3b34 d67d 0ae0 c6cb 0bad 8ae5
00000080: 3e41 c29d f0d2 2230 ee6f 65d9 1c2e ec20
00000090: e615 42fd 1c7b 5278 03f9 1eb4 ca10 8cc7
000000a0: 2cc3 021e 4de5 fbbb bfb1 ac42 5c46 207d
000000b0: 3228 2eb1 33f7 69cb 05ce 83a9 2019 f10d
000000c0: 87b6 2068 30e8 2c20 6c38 f71c e9a0 64ed
000000d0: f952 5933 1984 bf3d 10ca 3994 7d57 ec46
000000e0: f8a7 6ce3 1cac 41e2 40ab f88b b4ce f250
000000f0: d3fb c6f3 194c b816 5d59 f340 e3eb d6eb

pod/Relu;pod/batch_norm/batch_norm_core/add_1 f4 [160]
0.07411502 -0.15133506 -1.3126793 -1.0375724 -0.18660396 -1.2341081 0.12296617 -0.72812605
1.164378 0.4250793 -0.22944929 -0.9272997 -0.5554812 -0.35237402 -1.1631882 -0.23197234
-1.2356099 -0.51345223 0.26096654 -2.8487089 -1.2956268 0.5463975 -0.9883624 -0.33831817
-1.6683097 0.37020662 -0.99328846 -0.8020281 1.127191 -1.0964448 2.1153939 -0.18979156
1.0879002 -0.95614475 0.84445333 -0.8845843 -0.2644013 -1.3019065 -0.94985247 0.31994957
0.40688002 0.61866355 0.084566414 -0.5221795 0.0053479 -0.2891359 0.77976453 -2.1075902
-1.0575187 -2.0650718 -1.0510011 0.45726383 0.6128509 -0.47701764 -0.734821 2.0470774
-1.0629318 -1.3857306 -1.1655098 0.5141827 0.06640527 -1.0083965 -0.10213896 -1.4056238
-0.8635487 0.038965598 -1.25341 -1.0279316 -1.3958836 -0.49302697 0.090827316 0.08238165
0.4857751 0.14207383 0.15521495 0.5155555 0.11881114 -0.8564486 -2.2588632 -0.6328239
0.7982696 -2.7985957 0.791969 0.47819775 0.081303865 -1.4609104 -1.0619922 -0.12789997
-0.13884032 -0.18142268 0.911842 -0.23012483 -1.4782584 -0.13847053 0.43596572 -0.11259682
-1.8606793 -0.056532197 0.55316097 -0.1829019 -0.52083486 0.48911136 -0.22488526 -0.9124114
0.034419328 1.2306607 0.6170589 -1.7554938 -0.14042154 -0.37319744 -0.32887745 -0.6953549
0.21283028 1.2787367 -1.0556719 -0.39549178 -0.37595826 -1.0943104 -0.21564011 -0.70024645
-1.2174795 0.26696497 0.04844898 0.045909584 -1.4116406 -2.2486153 0.9746448 -1.3490342
0.62946707 0.2768413 0.666606 -0.45742425 -1.1131783 0.41775995 -0.06583631 -1.4896002
-0.1775156 -0.70060253 -2.711942 0.20053497 0.09480803 -0.25173458 -1.3920294 -1.2352778
0.43069142 0.31543556 -0.2858946 -0.7615543 -1.2594585 0.24874638 0.50557506 -1.667555
0.8252945 -1.4513113 -0.2547511 0.8745802 1.008514 -0.88257545 -0.87663436 0.22263077
00000000: 9ec9 973d 94f7 1abe e005 a8bf 2ccf 84bf
00000010: 1c15 3fbe 41f7 9dbf b0d5 fb3d 7866 3abf
00000020: 570a 953f fea3 d93e c1f4 6abe 8363 6dbf
00000030: 0434 0ebf 5e6a b4be 5ae3 94bf 288a 6dbe
00000040: 7728 9ebf 9b71 03bf 689d 853e 3f51 36c0
00000050: 19d7 a5bf b5e0 0b3f 5105 7dbf 0a38 adbe
00000060: 2c8b d5bf b98b bd3e 2748 7ebf b751 4dbf
00000070: cb47 903f 4e58 8cbf 9d62 0740 b858 42be
00000080: 5040 8b3f e7c5 74bf 182e 583f 1e74 62bf
00000090: 9b5f 87be dfa4 a6bf 8829 73bf 6ed0 a33e
000000a0: 9452 d03e bc60 1e3f 2831 ad3d 8ead 05bf
000000b0: 703d af3b 9f09 94be a69e 473f c2e2 06c0
000000c0: c65c 87bf 232a 04c0 3487 86bf 7c1e ea3e
000000d0: cce3 1c3f a83b f4be 3b1d 3cbf 5103 0340
000000e0: 260e 88bf 9f5f b1bf 6d2f 95bf 7aa1 033f
000000f0: 7cff 873d 2313 81bf 3b2e d1bd 7beb b3bf
00000100: 8711 5dbf 649a 1f3d bd6f a0bf 4393 83bf
00000110: 50ac b2bf 086e fcbe ac03 ba3d b6b7 a83d
00000120: 84b7 f83e cd7b 113e abf0 1e3e 72fb 033f
00000130: 4153 f33d 3740 5bbf 3791 10c0 bf00 22bf
00000140: 665b 4c3f 311c 33c0 7bbe 4a3f 56d6 f43e
00000150: a482 a63d 1dff babf 5cef 87bf 36f8 02be
00000160: 282c 0ebe dec6 39be 7a6e 693f d8a5 6bbe
00000170: 9237 bdbf 38cb 0dbe e636 df3e 2999 e6bd
00000180: bd2a eebf 4e8e 67bd f59b 0d3f a34a 3bbe
00000190: 6f55 05bf ce6c fa3e 5248 66be cb93 69bf
000001a0: 48fb 0c3d 4a86 9d3f 92f7 1d3f 05b4 e0bf
000001b0: aaca 0fbe bc13 bfbe a062 a8be c702 32bf
000001c0: 2ef0 593e a5ad a33f 4220 87bf e67d cabe
000001d0: 9a7d c0be 5d12 8cbf c3d0 5cbe 5a43 33bf
000001e0: 5ed6 9bbf a2af 883e 7072 463d b00b 3c3d
000001f0: a4b0 b4bf 50e9 0fc0 5282 793f 27ad acbf
00000200: c124 213f 25be 8d3e b1a6 2a3f 8333 eabe
00000210: a07c 8ebf a2e4 d53e 30d5 86bd 38ab bebf
00000220: a6c6 35be b05a 33bf 7590 2dc0 0a59 4d3e
00000230: b62a c23d 5be3 80be 052e b2bf 951d 9ebf
00000240: 9683 dc3e c580 a13e c760 92be 39f5 42bf
00000250: f035 a1bf 5fb7 7e3e 5e6d 013f 7172 d5bf
00000260: 8046 533f 92c4 b9bf bc6e 82be 7de4 5f3f
00000270: fd16 813f 77f0 61bf 1c6b 60bf 52f9 633e

pod/Relu_1;pod/batch_norm_1/batch_norm_core/add_1 f4 [200]
2.0433824 0.7058187 2.3236108 0.6686328 0.43542126 1.3430561 0.62687624 1.6097714
-0.31556717 1.2597069 2.2488084 0.32216498 1.0410691 0.8976578 1.0284111 0.54160213
-1.3605188 0.9487533 1.2430284 0.5098401 0.18149836 1.4275795 1.31398 2.1147127
1.6601313 1.6479723 0.7678416 1.3209763 0.46191686 0.5887955 0.69329023 1.1487532
-0.56193215 1.1467097 0.40553492 1.6095881 0.45644447 1.2428282 -0.258899 1.0687327
0.7806596 0.70999086 -0.11830798 1.9757903 0.7293936 0.6716529 0.7416699 1.0138843
1.2440233 -0.010594114 0.9332408 0.34827182 0.8671407 1.5278463 0.11629601 1.0347341
1.512133 1.0846033 0.99641025 0.9322216 1.4911519 0.78570837 1.2532847 -0.29320878
0.2074521 0.43274692 1.7809051 0.6178043 -1.9013934 0.15877184 0.4118109 0.6906945
1.1517228 -0.16390114 -0.26396573 1.2288758 1.0178175 1.0816102 0.41929305 1.2054678
1.1115086 1.1918529 1.6296934 1.013483 -0.70560837 0.4142804 -0.8422573 1.3366692
-0.6509281 0.96535563 0.36617103 1.0489538 1.159665 1.0830477 0.18734582 0.16793768
1.1619496 -0.59499687 1.2642907 0.31289986 -0.039567236 0.81156886 0.22862425 1.7278533
-0.18595192 1.1173995 1.0503036 1.7203647 0.73601717 0.9278399 1.0105388 0.8939831
0.74012095 0.86196584 -0.95365757 0.61637396 0.5869011 0.6942162 1.2376217 1.1955206
0.5233518 2.1127634 0.093952775 0.7303493 0.9103571 1.2034429 0.19699836 0.68489146
1.4106499 2.124803 1.184209 -0.37219924 0.5411328 0.78815836 1.1773857 -0.40365583
1.6578357 0.8397106 0.80483484 1.1583276 1.7220057 1.6048514 1.6766318 -0.15483516
0.6843871 -0.20787628 0.21608165 1.96418 1.0084721 1.1446414 0.8334247 0.32221308
0.88553447 1.2555194 0.2522983 1.6910635 1.5332698 1.4962689 0.68293875 1.1603345
-0.65468585 0.056208488 0.9268556 1.4106406 -0.6597896 0.33547902 1.1453645 0.65450317
1.9790995 1.9920515 0.7244046 0.93723094 0.2669572 1.3940243 0.55715007 0.5393968
1.58433 0.41750425 1.1501621 0.62917477 0.28698575 -0.24308269 1.4592252 0.6859268
1.2121927 1.001472 0.9223499 0.9884488 -0.28219554 1.2123401 0.29115307 0.58914685
1.0098299 1.563032 0.4440696 0.08790924 1.0050844 0.9163126 0.90520906 0.20069449
00000000: c7c6 0240 89b0 343f 0ab6 1440 852b 2b3f
00000010: 89ef de3e 43e9 ab3f f67a 203f fd0c ce3f
00000020: 0592 a1be 133e a13f 7aec 0f40 cff2 a43e
00000030: c141 853f e7cc 653f faa2 833f 70a6 0a3f
00000040: 7b25 aebf 7fe1 723f 8e1b 9f3f e184 023f
00000050: b5da 393e edba b63f 7f30 a83f 7457 0740
00000060: 2f7f d43f c2f0 d23f 4491 443f c015 a93f
00000070: 5e80 ec3e 4dbb 163f 787b 313f 580a 933f
00000080: c9da 0fbf 62c7 923f 46a2 cf3e fc06 ce3f
00000090: 17b3 e93e ff14 9f3f 698e 84be 3ccc 883f
000000a0: 4fd9 473f f6c1 353f 744b f2bd b2e6 fc3f
000000b0: 8ab9 3a3f 72f1 2b3f 14de 3d3f f6c6 813f
000000c0: 283c 9f3f ef92 2dbc dee8 6e3f af50 b23e
000000d0: effc 5d3f 7890 c33f 9a2c ee3d 2b72 843f
000000e0: 938d c13f 48d4 8a3f be14 7f3f 13a6 6e3f
000000f0: 11de be3f 2f24 493f a26b a03f 761f 96be
00000100: 536e 543e 0191 dd3e b3f4 e33f 6c28 1e3f
00000110: dc60 f3bf 1695 223e e1d8 d23e 5bd1 303f
00000120: a76b 933f b3d5 27be 8426 87be cd4b 9d3f
00000130: d847 823f 3472 8a3f 94ad d63e c54c 9a3f
00000140: ea45 8e3f a38e 983f cb99 d03f d0b9 813f
00000150: c0a2 34bf 901c d43e 2d9e 57bf fa17 ab3f
00000160: 39a3 26bf 8c21 773f c57a bb3e 1e44 863f
00000170: e76f 943f 4fa1 8a3f 95d7 3f3e dbf7 2b3e
00000180: c4ba 943f b751 18bf 47d4 a13f 6934 a03e
00000190: 4111 22bd fac2 4f3f 7a1c 6a3e 4c2a dd3f
000001a0: 2e6a 3ebe f206 8f3f 5970 863f e934 dc3f
000001b0: 9f6b 3c3f ea86 6d3f 5659 813f 14dc 643f
000001c0: 9178 3d3f cba9 5c3f e722 74bf afca 1d3f
000001d0: 273f 163f 27b8 313f 636a 9e3f d206 993f
000001e0: 62fa 053f 8437 0740 506a c03d 2cf8 3a3f
000001f0: 2a0d 693f 6b0a 9a3f f0b9 493e 0c55 2f3f
00000200: 2d90 b43f c6fc 0740 2994 973f e690 bebe
00000210: ae87 0a3f bfc4 493f 93b4 963f faab cebe
00000220: f633 d43f 46f7 563f a809 4e3f 1444 943f
00000230: af6a dc3f c56b cd3f df9b d63f 1c8d 1ebe
00000240: fe33 2f3f 85dd 54be 8244 5d3e 406a fb3f
00000250: 9d15 813f 9c83 923f 525b 553f 1df9 a43e
00000260: 63b2 623f dcb4 a03f 3e2d 813e c574 d83f
00000270: 2f42 c43f bd85 bf3f 13d5 2e3f d785 943f
00000280: 7e99 27bf df3a 663d 6946 6d3f df8f b43f
00000290: f9e7 28bf e8c3 ab3e 4e9b 923f 858d 273f
000002a0: 2253 fd3f 8bfb fe3f 9472 393f 5eee 6f3f
000002b0: 9dae 883e 636f b23f 63a1 0e3f e915 0a3f
000002c0: 53cb ca3f 1ec3 d53e 8338 933f 9911 213f
000002d0: ccef 923e abea 78be e4c7 ba3f e698 2f3f
000002e0: 2129 9b3f 3c30 803f 1f1f 6c3f fb0a 7d3f
000002f0: ef7b 90be f62d 9b3f 0412 953e 54d2 163f
00000300: 1b42 813f 6f11 c83f 175d e33e c209 b43d
00000310: 9ba6 803f 7693 6a3f c8bb 673f db82 4d3e

pod/batch_norm_2/batch_norm_core/add_11 f4 [111]
1.231003 3.6092021 0.7785186 1.587476 3.4679 2.2821734 0.3431007 0.87644094
1.7178358 0.4327962 2.534431 2.1031253 1.92289 1.7332164 2.7383783 1.3854858
4.208613 3.4185202 2.401122 2.6836321 5.7990866 2.4807267 3.1473508 2.5265892
2.449014 0.3076929 2.7615921 2.1063712 4.5584803 3.4638429 1.5374416 1.7795507
2.1757772 -0.30038515 2.92261 1.205005 1.242079 3.3464346 3.0638359 2.6762674
2.2577007 2.9611597 -0.08899977 2.8638194 3.182109 2.9101799 2.707959 1.5547073
2.7988658 2.5859272 2.5268226 1.1394175 1.3628553 1.504774 0.33379814 1.5147943
2.0868785 2.0538495 2.3900523 2.6989133 -0.19922563 2.8129644 2.8437624 2.5350747
2.9827275 1.0503824 0.24939421 2.1481645 0.012863083 3.1115296 3.3180153 -0.8036177
0.68640655 4.7077537 3.8727434 1.7969931 2.5812511 3.507783 1.0371672 3.0948014
3.201924 1.3917482 2.9205656 2.1844487 0.41409668 3.452447 2.804628 1.268721
3.2548513 1.4507341 2.468912 0.4080225 1.4941512 2.5030644 3.5826635 1.7913616
-0.13374016 1.2483404 -0.71101046 0.9708587 3.1366923 1.3107973 1.5031465 3.4866638
3.1381366 1.9469388 1.2925856 2.540456 4.2375517 0.053774342 2.3811007
00000000: 8291 9d3f 2bfd 6640 ff4c 473f 6a32 cb3f
00000010: 13f2 5d40 210f 1240 e5aa af3e 6f5e 603f
00000020: 0be2 db3f 7797 dd3e 1e34 2240 9b99 0640
00000030: 4221 f63f 09da dd3f 9741 2f40 9957 b13f
00000040: f5ac 8640 09c9 5a40 fcab 1940 a1c0 2b40
00000050: 1e92 b940 3ac4 1e40 326e 4940 a3b3 2140
00000060: a5bc 1c40 ec89 9d3e edbd 3040 c9ce 0640
00000070: 12df 9140 9aaf 5d40 e3ca c43f 51c8 e33f
00000080: ef3f 0b40 15cc 99be 0b0c 3b40 9b3d 9a3f
00000090: 72fc 9e3f fc2b 5640 e315 4440 f747 2b40
000000a0: 2b7e 1040 a483 3d40 8345 b6bd d148 3740
000000b0: ada7 4b40 6340 3a40 334f 2d40 a600 c73f
000000c0: 9e20 3340 d57f 2540 76b7 2140 6fd8 913f
000000d0: 0b72 ae3f 6f9c c03f 97e7 aa3e c8e4 c13f
000000e0: 6b8f 0540 4572 0340 9ef6 1840 ffba 2c40
000000f0: ce01 4cbe 9c07 3440 3400 3640 aa3e 2240
00000100: 02e5 3e40 ee72 863f 3261 7f3e 877b 0940
00000110: aebf 523c 4d23 4740 5d5a 5440 e4b9 4dbf
00000120: 57b8 2f3f eba5 9640 07db 7740 df03 e63f
00000130: 3833 2540 847f 6040 e5c1 843f 3a11 4640
00000140: 53ec 4c40 ce24 b23f 8cea 3a40 02ce 0b40
00000150: 7b04 d43e e4f4 5c40 067f 3340 7365 a23f
00000160: 7c4f 5040 a8b1 b93f a702 1e40 53e8 d03e
00000170: 5940 bf3f 3532 2040 5c4a 6540 564b e53f
00000180: 2ef3 08be 9ec9 9f3f c804 36bf 328a 783f
00000190: 91bf 4840 35c8 a73f 1b67 c03f 8025 5f40
000001a0: 3bd7 4840 4a35 f93f 7273 a53f d596 2240
000001b0: 069a 8740 7c42 5c3d f463 1840

pod/batch_norm/batch_norm_core/mul_1 i1 [160, 96] scale=0.027866341 zero_point=0
-0.055732682 0.36226243 -1.5326488 0.72452486 0.25079706 -0.72452486 -0.72452486 -1.0031883
-0.08359902 0.36226243 0.30652976 -0.41799513 0.6409258 1.1703863 0.7523912 0.1393317
0.86385655 -0.97532195 0.44586146 -0.22293073 0.2786634 1.0031883 -1.6719805 -0.25079706
0.2786634 0.8917229 -0.16719805 0.111465365 0.30652976 -0.111465365 -0.16719805 -1.058921
-0.111465365 0.4737278 0.2786634 -0.36226243 -1.1982527 0.4737278 0.111465365 0.1950644
-0.08359902 0.5294605 0.41799513 -0.69665855 -0.4737278 -0.5294605 -1.3933171 0.16719805
-1.1146536 0.08359902 0.69665855 0.027866341 -0.027866341 -0.22293073 -0.111465365 0.9195893
-0.6409258 -0.08359902 -0.30652976 -0.36226243 -1.058921 1.1703863 0.9474556 0.055732682
-0.44586146 -0.6687922 -0.41799513 0.25079706 1.0031883 -1.0310546 -1.0867873 -1.14252
0.1393317 -0.16719805 -0.36226243 0.69665855 0.41799513 0.97532195 0.16719805 1.2818516
-1.3933171 0.055732682 1.6162478 -0.22293073 0.1393317 0.8081239 1.4769161 -1.4769161
0.3901288 -0.6409258 -0.8081239 0.3901288 -0.9474556 0.6687922 0.08359902 0.6687922
0.5573268 0.1393317 -0.1393317 0.6687922 0.16719805 1.0310546 -0.16719805 -0.44586146
-0.4737278 0.111465365 -0.055732682 -0.5015941 0.3901288 -0.36226243 -0.3901288 -0.2786634
0.58519316 -1.4769161 0.2786634 2.0063765 1.3654507 1.0031883 -1.2539854 -0.44586146
-1.2539854 0.30652976 -0.1393317 -0.44586146 -0.9195893 -0.4737278 0.027866341 1.14252
1.1146536 -0.25079706 -0.22293073 -0.7523912 -1.5047824 0.16719805 0.1393317 -0.97532195
1.7555795 0.5294605 0.9474556 0.72452486 0.41799513 -0.6130595 0.8081239 0.5015941
-1.5883814 0.6687922 0.1393317 -0.111465365 2.0063765 -1.1982527 0.08359902 -0.8917229
0.44586146 -0.41799513 1.2539854 0.41799513 0.2786634 0.58519316 0.6687922 0.7802576
0.8081239 1.8949112 0.055732682 0.8081239 -0.4737278 -1.3933171 -0.3901288 -0.8917229
0.055732682 0.7523912 -1.058921 -1.1982527 -0.1950644 -0.1950644 -0.055732682 -0.69665855
-0.25079706 0.6130595 -0.7802576 0.5015941 -0.3343961 1.9227775 0.83599025 -0.111465365
1.9785103 -0.86385655 -1.14252 1.226119 -0.8917229 -0.7802576 -1.4769161 0.4737278
0.8081239 0.41799513 -1.4769161 1.9506439 0.3343961 0.30652976 0.72452486 0.58519316
-0.5015941 -0.72452486 -0.1950644 0.7523912 0.4737278 -0.5015941 0.6687922 -0.055732682
1.226119 0.36226243 -1.4490497 -0.7802576 -0.8081239 -0.44586146 -1.6441141 0.027866341
-0.86385655 -0.1950644 -0.6687922 -0.8081239 -0.36226243 0.5573268 1.0031883 1.0310546
0.41799513 -1.226119 0.69665855 0.72452486 0.1950644 -0.5573268 0.30652976 -0.41799513
-0.36226243 0.5294605 0.3901288 -1.058921 -0.027866341 -0.7802576 0.30652976 0.1950644
0.36226243 0.08359902 -0.08359902 -0.6130595 0.3901288 0.69665855 -2.2571735 0.86385655
-1.1146536 0.6130595 -0.8081239 1.058921 -0.055732682 0.1950644 -0.25079706 1.1982527
00000000: fe0d c91a 09e6 e6dc fd0d 0bf1 172a 1b05
00000010: 1fdd 10f8 0a24 c4f7 0a20 fa04 0bfc fada
00000020: fc11 0af3 d511 0407 fd13 0fe7 efed ce06
00000030: d803 1901 fff8 fc21 e9fd f5f3 da2a 2202
00000040: f0e8 f109 24db d9d7 05fa f319 0f23 062e
00000050: ce02 3af8 051d 35cb 0ee9 e30e de18 0318
00000060: 1405 fb18 0625 faf0 ef04 feee 0ef3 f2f6
00000070: 15cb 0a48 3124 d3f0 d30b fbf0 dfef 0129
00000080: 28f7 f8e5 ca06 05dd 3f13 221a 0fea 1d12
00000090: c718 05fc 48d5 03e0 10f1 2d0f 0a15 181c
000000a0: 1d44 021d efce f2e0 021b dad5 f9f9 fee7
000000b0: f716 e412 f445 1efc 47e1 d72c e0e4 cb11
000000c0: 1d0f cb46 0c0b 1a15 eee6 f91b 11ee 18fe
000000d0: 2c0d cce4 e3f0 c501 e1f9 e8e3 f314 2425
000000e0: 0fd4 191a 07ec 0bf1 f313 0eda ffe4 0b07
000000f0: 0d03 fdea 0e19 af1f d816 e326 fe07 f72b

pod/batch_norm_1/batch_norm_core/mul_1 i1 [200, 160] scale=0.011496655 zero_point=0
-0.26442307 -0.10346989 -0.02299331 -0.08047658 -0.1264632 -0.08047658 -0.08047658 0.0
-0.1264632 0.034489963 -0.10346989 0.08047658 -0.011496655 0.0 -0.09197324 0.02299331
-0.24142975 -0.034489963 -0.011496655 -0.02299331 0.16095316 -0.09197324 -0.09197324 -0.057483274
-0.02299331 -0.13795985 0.04598662 -0.02299331 0.10346989 0.06897993 -0.1264632 0.06897993
-0.034489963 -0.08047658 -0.10346989 -0.057483274 -0.034489963 0.057483274 0.16095316 -0.057483274
0.02299331 -0.04598662 -0.11496655 0.034489963 -0.1264632 -0.08047658 -0.02299331 -0.06897993
0.034489963 -0.16095316 0.18394648 -0.011496655 -0.011496655 -0.06897993 -0.034489963 -0.2759197
0.09197324 -0.1264632 0.04598662 0.10346989 0.04598662 0.057483274 -0.16095316 -0.034489963
-0.11496655 0.06897993 -0.21843643 -0.06897993 -0.11496655 -0.16095316 0.08047658 0.06897993
0.057483274 -0.057483274 -0.08047658 -0.11496655 -0.04598662 0.20693979 -0.11496655 -0.10346989
0.02299331 -0.1264632 0.1264632 -0.09197324 -0.16095316 -0.02299331 -0.08047658 -0.04598662
-0.11496655 0.034489963 0.011496655 -0.18394648 0.034489963 0.057483274 -0.08047658 -0.13795985
0.1264632 -0.1264632 -0.09197324 0.09197324 -0.09197324 -0.14945652 -0.10346989 0.02299331
0.011496655 -0.04598662 0.09197324 -0.04598662 0.057483274 -0.06897993 0.09197324 -0.08047658
0.02299331 -0.1264632 0.08047658 -0.04598662 -0.13795985 -0.02299331 0.011496655 0.1264632
-0.034489963 0.034489963 -0.057483274 0.08047658 -0.02299331 -0.16095316 0.1264632 -0.09197324
-0.06897993 0.04598662 -0.17244983 0.18394648 0.1264632 -0.1264632 -0.02299331 -0.06897993
-0.04598662 0.14945652 0.0 -0.02299331 0.057483274 -0.16095316 0.057483274 -0.034489963
-0.057483274 0.14945652 -0.10346989 -0.04598662 0.04598662 -0.02299331 -0.13795985 -0.057483274
-0.13795985 0.057483274 -0.04598662 -0.06897993 -0.034489963 -0.16095316 0.02299331 -0.1264632
0.057483274 -0.10346989 -0.02299331 -0.19544312 0.06897993 0.13795985 0.11496655 -0.057483274
-0.13795985 -0.09197324 0.11496655 0.011496655 0.11496655 -0.034489963 0.06897993 0.02299331
-0.10346989 0.06897993 -0.04598662 -0.09197324 -0.08047658 0.04598662 -0.034489963 -0.06897993
0.011496655 -0.034489963 0.034489963 0.04598662 -0.10346989 -0.10346989 0.034489963 -0.13795985
0.11496655 0.04598662 -0.057483274 -0.06897993 0.09197324 0.09197324 -0.04598662 0.057483274
0.011496655 -0.08047658 0.057483274 0.17244983 -0.034489963 -0.2529264 -0.11496655 0.10346989
-0.10346989 -0.17244983 -0.13795985 0.04598662 -0.02299331 -0.09197324 -0.16095316 0.057483274
-0.13795985 -0.011496655 -0.02299331 -0.18394648 0.0 -0.02299331 -0.08047658 0.057483274
-0.011496655 -0.02299331 0.04598662 -0.057483274 0.034489963 -0.10346989 0.0 -0.04598662
-0.13795985 -0.034489963 0.02299331 0.011496655 0.09197324 0.034489963 0.034489963 -0.06897993
0.057483274 -0.14945652 -0.04598662 -0.08047658 -0.08047658 -0.057483274 0.0 -0.11496655
0.1264632 -0.011496655 -0.034489963 0.057483274 -0.06897993 0.0 0.02299331 -0.04598662
00000000: e9f7 fef9 f5f9 f900 f503 f707 ff00 f802
00000010: ebfd fffe 0ef8 f8fb fef4 04fe 0906 f506
00000020: fdf9 f7fb fd05 0efb 02fc f603 f5f9 fefa
00000030: 03f2 10ff fffa fde8 08f5 0409 0405 f2fd
00000040: f606 edfa f6f2 0706 05fb f9f6 fc12 f6f7
00000050: 02f5 0bf8 f2fe f9fc f603 01f0 0305 f9f4
00000060: 0bf5 f808 f8f3 f702 01fc 08fc 05fa 08f9
00000070: 02f5 07fc f4fe 010b fd03 fb07 fef2 0bf8
00000080: fa04 f110 0bf5 fefa fc0d 00fe 05f2 05fd
00000090: fb0d f7fc 04fe f4fb f405 fcfa fdf2 02f5
000000a0: 05f7 feef 060c 0afb f4f8 0a01 0afd 0602
000000b0: f706 fcf8 f904 fdfa 01fd 0304 f7f7 03f4
000000c0: 0a04 fbfa 0808 fc05 01f9 050f fdea f609
000000d0: f7f1 f404 fef8 f205 f4ff fef0 00fe f905
000000e0: fffe 04fb 03f7 00fc f4fd 0201 0803 03fa
000000f0: 05f3 fcf9 f9fb 00f6 0bff fd05 fa00 02fc
